HiDDeN model: EncoderDecoder(
  (feature_extractor): FeatureExtractor(
    (conv1): ConvBNRelu(
      (layers): Sequential(
        (0): Conv2d(3, 32, kernel_size=(3, 3), stride=(1, 1), padding=(1, 1))
        (1): BatchNorm2d(32, eps=1e-05, momentum=0.1, affine=True, track_running_stats=True)
        (2): ReLU(inplace=True)
      )
    )
    (se1): SEBlock(
      (global_avg_pool): AdaptiveAvgPool2d(output_size=1)
      (fc1): Linear(in_features=32, out_features=2, bias=False)
      (relu): ReLU(inplace=True)
      (fc2): Linear(in_features=2, out_features=32, bias=False)
      (sigmoid): Sigmoid()
    )
    (conv2): ConvBNRelu(
      (layers): Sequential(
        (0): Conv2d(32, 64, kernel_size=(3, 3), stride=(1, 1), padding=(1, 1))
        (1): BatchNorm2d(64, eps=1e-05, momentum=0.1, affine=True, track_running_stats=True)
        (2): ReLU(inplace=True)
      )
    )
    (se2): SEBlock(
      (global_avg_pool): AdaptiveAvgPool2d(output_size=1)
      (fc1): Linear(in_features=64, out_features=4, bias=False)
      (relu): ReLU(inplace=True)
      (fc2): Linear(in_features=4, out_features=64, bias=False)
      (sigmoid): Sigmoid()
    )
    (conv3): ConvBNRelu(
      (layers): Sequential(
        (0): Conv2d(64, 30, kernel_size=(3, 3), stride=(1, 1), padding=(1, 1))
        (1): BatchNorm2d(30, eps=1e-05, momentum=0.1, affine=True, track_running_stats=True)
        (2): ReLU(inplace=True)
      )
    )
    (se3): SEBlock(
      (global_avg_pool): AdaptiveAvgPool2d(output_size=1)
      (fc1): Linear(in_features=30, out_features=1, bias=False)
      (relu): ReLU(inplace=True)
      (fc2): Linear(in_features=1, out_features=30, bias=False)
      (sigmoid): Sigmoid()
    )
    (final_pool): AdaptiveAvgPool2d(output_size=(1, 1))
  )
  (encoder): Encoder(
    (conv_layers): Sequential(
      (0): ConvBNRelu(
        (layers): Sequential(
          (0): Conv2d(3, 64, kernel_size=(3, 3), stride=(1, 1), padding=(1, 1))
          (1): BatchNorm2d(64, eps=1e-05, momentum=0.1, affine=True, track_running_stats=True)
          (2): ReLU(inplace=True)
        )
      )
      (1): ConvBNRelu(
        (layers): Sequential(
          (0): Conv2d(64, 64, kernel_size=(3, 3), stride=(1, 1), padding=(1, 1))
          (1): BatchNorm2d(64, eps=1e-05, momentum=0.1, affine=True, track_running_stats=True)
          (2): ReLU(inplace=True)
        )
      )
      (2): SEBlock(
        (global_avg_pool): AdaptiveAvgPool2d(output_size=1)
        (fc1): Linear(in_features=64, out_features=4, bias=False)
        (relu): ReLU(inplace=True)
        (fc2): Linear(in_features=4, out_features=64, bias=False)
        (sigmoid): Sigmoid()
      )
      (3): ConvBNRelu(
        (layers): Sequential(
          (0): Conv2d(64, 64, kernel_size=(3, 3), stride=(1, 1), padding=(1, 1))
          (1): BatchNorm2d(64, eps=1e-05, momentum=0.1, affine=True, track_running_stats=True)
          (2): ReLU(inplace=True)
        )
      )
      (4): SEBlock(
        (global_avg_pool): AdaptiveAvgPool2d(output_size=1)
        (fc1): Linear(in_features=64, out_features=4, bias=False)
        (relu): ReLU(inplace=True)
        (fc2): Linear(in_features=4, out_features=64, bias=False)
        (sigmoid): Sigmoid()
      )
      (5): ConvBNRelu(
        (layers): Sequential(
          (0): Conv2d(64, 64, kernel_size=(3, 3), stride=(1, 1), padding=(1, 1))
          (1): BatchNorm2d(64, eps=1e-05, momentum=0.1, affine=True, track_running_stats=True)
          (2): ReLU(inplace=True)
        )
      )
      (6): SEBlock(
        (global_avg_pool): AdaptiveAvgPool2d(output_size=1)
        (fc1): Linear(in_features=64, out_features=4, bias=False)
        (relu): ReLU(inplace=True)
        (fc2): Linear(in_features=4, out_features=64, bias=False)
        (sigmoid): Sigmoid()
      )
    )
    (after_concat_layer): ConvBNRelu(
      (layers): Sequential(
        (0): Conv2d(63, 64, kernel_size=(3, 3), stride=(1, 1), padding=(1, 1))
        (1): BatchNorm2d(64, eps=1e-05, momentum=0.1, affine=True, track_running_stats=True)
        (2): ReLU(inplace=True)
      )
    )
    (final_layer): Conv2d(64, 3, kernel_size=(1, 1), stride=(1, 1))
  )
  (noiser): Noiser()
  (decoder): Decoder(
    (layers): Sequential(
      (0): ConvBNRelu(
        (layers): Sequential(
          (0): Conv2d(3, 64, kernel_size=(3, 3), stride=(1, 1), padding=(1, 1))
          (1): BatchNorm2d(64, eps=1e-05, momentum=0.1, affine=True, track_running_stats=True)
          (2): ReLU(inplace=True)
        )
      )
      (1): SEBlock(
        (global_avg_pool): AdaptiveAvgPool2d(output_size=1)
        (fc1): Linear(in_features=64, out_features=4, bias=False)
        (relu): ReLU(inplace=True)
        (fc2): Linear(in_features=4, out_features=64, bias=False)
        (sigmoid): Sigmoid()
      )
      (2): SEBlock(
        (global_avg_pool): AdaptiveAvgPool2d(output_size=1)
        (fc1): Linear(in_features=64, out_features=4, bias=False)
        (relu): ReLU(inplace=True)
        (fc2): Linear(in_features=4, out_features=64, bias=False)
        (sigmoid): Sigmoid()
      )
      (3): SEBlock(
        (global_avg_pool): AdaptiveAvgPool2d(output_size=1)
        (fc1): Linear(in_features=64, out_features=4, bias=False)
        (relu): ReLU(inplace=True)
        (fc2): Linear(in_features=4, out_features=64, bias=False)
        (sigmoid): Sigmoid()
      )
      (4): ConvBNRelu(
        (layers): Sequential(
          (0): Conv2d(64, 64, kernel_size=(3, 3), stride=(1, 1), padding=(1, 1))
          (1): BatchNorm2d(64, eps=1e-05, momentum=0.1, affine=True, track_running_stats=True)
          (2): ReLU(inplace=True)
        )
      )
      (5): ConvBNRelu(
        (layers): Sequential(
          (0): Conv2d(64, 30, kernel_size=(3, 3), stride=(1, 1), padding=(1, 1))
          (1): BatchNorm2d(30, eps=1e-05, momentum=0.1, affine=True, track_running_stats=True)
          (2): ReLU(inplace=True)
        )
      )
      (6): SEBlock(
        (global_avg_pool): AdaptiveAvgPool2d(output_size=1)
        (fc1): Linear(in_features=30, out_features=1, bias=False)
        (relu): ReLU(inplace=True)
        (fc2): Linear(in_features=1, out_features=30, bias=False)
        (sigmoid): Sigmoid()
      )
      (7): AdaptiveAvgPool2d(output_size=(1, 1))
    )
    (linear): Linear(in_features=30, out_features=30, bias=True)
  )
)
Discriminator(
  (before_linear): Sequential(
    (0): ConvBNRelu(
      (layers): Sequential(
        (0): Conv2d(3, 64, kernel_size=(3, 3), stride=(1, 1), padding=(1, 1))
        (1): BatchNorm2d(64, eps=1e-05, momentum=0.1, affine=True, track_running_stats=True)
        (2): ReLU(inplace=True)
      )
    )
    (1): ConvBNRelu(
      (layers): Sequential(
        (0): Conv2d(64, 64, kernel_size=(3, 3), stride=(1, 1), padding=(1, 1))
        (1): BatchNorm2d(64, eps=1e-05, momentum=0.1, affine=True, track_running_stats=True)
        (2): ReLU(inplace=True)
      )
    )
    (2): ConvBNRelu(
      (layers): Sequential(
        (0): Conv2d(64, 64, kernel_size=(3, 3), stride=(1, 1), padding=(1, 1))
        (1): BatchNorm2d(64, eps=1e-05, momentum=0.1, affine=True, track_running_stats=True)
        (2): ReLU(inplace=True)
      )
    )
    (3): AdaptiveAvgPool2d(output_size=(1, 1))
  )
  (linear): Linear(in_features=64, out_features=1, bias=True)
)

Model Configuration:

{'H': 128,
 'W': 128,
 'adaptor_ber_weight': 1000,
 'adaptor_psnr_weight': 0.75,
 'adaptor_ssim_weight': 6,
 'adversarial_loss': 0.0001,
 'decoder_blocks': 7,
 'decoder_channels': 64,
 'decoder_loss': 10,
 'discriminator_blocks': 3,
 'discriminator_channels': 64,
 'enable_fp16': False,
 'encoder_blocks': 4,
 'encoder_channels': 64,
…
